app/mnist_ffn.pth (torch, 319695 bytes, 4 tensors)

l1.weight f4 [100, 784]
000000 a8 af 26 bd 06 d0 0b bd a2 a5 27 bd f9 e8 e9 bc
       -0.040694863 -0.034133933 -0.040929444 -0.028553473
000010 e8 23 1e bd 0b 30 8b 3c ac 90 c4 3a ed da bd 3c
       -0.03860846 0.016990682 0.0014996729 0.023175681
000020 5d 2a c1 3c ad 31 20 3b cd 89 5a bc ee ea 9a 3c
       0.02357977 0.0024443672 -0.013338518 0.018910851
000030 75 2d 13 bd 60 5f 9c 3c 1f 0f b7 bc da 56 91 3c
       -0.035932023 0.019088447 -0.022346077 0.01774161
000040 d8 0a cd 3a f4 7e 06 3c 1d 6f 36 3c 4d f2 c4 bc
       0.001564349 0.008208979 0.01113489 -0.02404132
000050 7c a4 0a bd ed 76 14 bc e9 6d cc bc 5d 14 20 bb
       -0.03384827 -0.009061557 -0.024954753 -0.00244262
000060 f1 cc 85 bc e5 1f 29 bb 62 d5 b1 39 17 97 0a bc
       -0.016333075 -0.0025806364 0.00033919053 -0.008458874
000070 b2 a2 b5 39 4f f4 15 bc e6 2b 63 bc e4 e1 31 bd
       0.00034644228 -0.009152486 -0.013865447 -0.043428317
000080 d1 8e 15 bd 58 51 4e ba 1f b0 9f bb ee f8 1e 3b
       -0.036513153 -0.00078703975 -0.00487329 0.002425726
000090 a6 72 bb bc 5e f8 8d 3c ee f5 93 3c f5 34 bd 3c
       -0.022881817 0.017330345 0.018061604 0.023096541
0000a0 6c 77 67 3c fc d0 cb 3c d8 f2 d8 3c c0 d0 4b 3c
       0.0141275935 0.024879925 0.026482984 0.012439907
0000b0 37 d1 0a bc 16 78 05 bd 98 06 f6 3c 59 14 0a bc
       -0.008472732 -0.032585226 0.030032441 -0.008427703
0000c0 7f de 8d 3a fe 72 fe bc 01 5a 8f b9 df 42 91 bb
       0.0010823755 -0.031060692 -0.00027342144 -0.0044330205
0000d0 32 8b 19 bd 12 3f 0d bd 31 00 bd bc 8d d6 65 bc
       -0.037486263 -0.034483977 -0.02307138 -0.014028204
0000e0 d7 f0 ae 3c bd 5a 3c 3c 6a db 88 b9 e5 9f 9c 3b
       0.021355076 0.011496243 -0.00026103418 0.004779803
0000f0 63 26 2c bd ad d3 bf bb e1 8c 08 bd c4 6e b0 3c
       -0.042028796 -0.005854091 -0.033337478 0.021537192
000100 bb 75 06 3d 58 dc 88 bb 72 fc 6c 3d f4 33 6a 3d
       0.03282712 -0.0041766576 0.057857938 0.057178453
000110 88 38 54 3d 3a 43 18 3d f1 7e 9e 3d f3 f4 b0 3d
       0.051811725 0.037173487 0.07739056 0.0864047
000120 16 0c 3d 3d 73 74 49 3d e0 26 d8 3c 46 12 37 3b
       0.046154104 0.04918332 0.026385725 0.0027934476
000130 db 82 7c bb 84 fc 63 3b b9 35 e5 bc b5 ac 08 ba
       -0.0038530144 0.0034787962 -0.027979719 -0.00052137236
000140 75 a6 03 bd ac 32 14 3b 06 f9 fd bc 0f 6b a8 3c
       -0.032141168 0.002261321 -0.031002533 0.020558862
000150 40 b8 30 bd dd e0 30 bc 1e 80 d9 3c 43 a3 9b 3a
       -0.043144464 -0.010795799 0.026550349 0.0011874217
000160 09 56 da 3c 19 5f 3e 3c 5d 73 89 bc d2 3c 39 bc
       0.026652353 0.011619353 -0.016778642 -0.011306005
000170 c4 64 82 3d 8b 56 ee 3c 36 85 96 3d f9 42 b5 3d
       0.06366876 0.029094001 0.07349627 0.08850665
000180 8e a1 9e 3d ed de 5b 3d 4f 0e 87 3d 8a 8f 20 3d
       0.07745658 0.053679395 0.06594526 0.03919939
000190 8d a4 94 3d 27 08 24 3c 11 8e b7 bc 93 fa 18 3d
       0.07257948 0.010011709 -0.02240661 0.03734834
0001a0 46 f1 be bc 05 91 fd 3b 22 53 99 3c f9 ab 8c bc
       -0.023308408 0.007738235 0.018716399 -0.017171847
0001b0 93 0e 23 bc 85 10 29 bd 10 ca 34 3c 53 ee 58 3b
       -0.009952205 -0.04127552 0.011034504 0.0033101037
0001c0 93 b4 dc 3c 8f 24 c2 bc f4 97 52 3c 63 f0 6a 3c
       0.026941573 -0.023699073 0.012853611 0.014339539
0001d0 cc 78 69 bc 15 be 37 bc d9 d4 73 3c df 60 7c 3d
       -0.014249992 -0.011214753 0.01488229 0.06161582
0001e0 94 ac 76 3d ac b6 c0 3d bc 2e 84 3d 67 3e 53 3d
       0.060223177 0.09409842 0.064542264 0.051573183
0001f0 b6 66 c0 3c a3 72 2a 3d e7 3b 67 3d 81 c2 13 3c
       0.023486476 0.041613232 0.05645361 0.009018541
000200 24 d6 87 3b 0b e9 83 3c 9d d3 a9 bc 96 43 17 bd
       0.0041454006 0.016102334 -0.020730788 -0.03692969
000210 7e 77 3b bd 08 da 69 ba 02 69 18 bd 34 6d 06 bd
       -0.045768254 -0.0008920734 -0.03720952 -0.032818988
000220 07 44 8b bc d1 c8 de bc 4b 19 12 bd af da 0b bd
       -0.017000211 -0.027195366 -0.035668653 -0.0341441
000230 15 c4 b7 3a 9b a1 b0 bc d8 2f 20 bd 79 12 93 3c
       0.0014020229 -0.021561434 -0.039108127 0.017953144
000240 09 92 16 bb ef 7e 21 3c f3 e3 67 3d f1 16 98 3c
       -0.0022975227 0.0098569235 0.056613874 0.018565627
000250 08 0c cf 3c 5f f0 5a 3d 7d e6 f4 3c 6c 6f b0 b8
       0.025274292 0.053451892 0.029895062 -8.413088e-05
000260 2b b9 79 3c d1 d7 16 3c eb 4c ed bc e8 c0 06 3c
       0.015241901 0.009206728 -0.028967341 0.008224703
000270 65 f6 0f bc d5 08 6f bd 25 53 96 bd 2c 6a 25 bd
       -0.008786772 -0.058358032 -0.07340077 -0.040384457
000280 0d fd 5a bd e2 8f fb bc 51 bb 91 ba 8c fe c1 bb
       -0.053463984 -0.030708257 -0.0011118447 -0.005920237
000290 a2 d4 b8 3c 4e c9 08 bd 79 c8 b2 3c fe d2 52 bc
       0.022562329 -0.033395104 0.021824108 -0.012867687
0002a0 16 e0 07 bd 12 37 08 bd e2 1c be bc 21 b4 1f bd
       -0.03317269 -0.033255644 -0.023207132 -0.038990144
0002b0 4c 14 bc bc 79 51 13 3c 8d 89 c8 3c fc 99 bd bc
       -0.022958897 0.008991593 0.024479652 -0.023144715
0002c0 17 50 1b bd de 3f 9d 3b a8 7f 9a 3c 9c eb 6f bb
       -0.037918177 0.0047988733 0.0188597 -0.003660894
0002d0 45 50 fa bc a0 f2 4b bd d0 73 be bc e7 1c 33 bd
       -0.030555854 -0.049791932 -0.023248583 -0.043728735
0002e0 dd 79 96 bd eb 87 64 bd d9 cf bc bd 8f 53 9f bd
       -0.07347462 -0.055793684 -0.09219331 -0.077796094
0002f0 99 ac b6 bd ed db 95 bd c5 f5 8b bd a0 ac 94 bd
       -0.08919639 -0.07317338 -0.06833986 -0.07259488
000300 35 f6 03 bd 28 b1 a6 bc 5b 55 84 bc 66 93 12 bd
       -0.032217223 -0.020348147 -0.016153982 -0.0357851
000310 79 09 af bc 00 57 79 b8 a4 4c 74 3c 99 95 0d bd
       -0.021366822 -5.944725e-05 0.014910851 -0.034566496
000320 02 0c b7 bb 7c e6 5b bd 10 08 b7 bc 5b 69 bc bc
       -0.0055861482 -0.053686604 -0.022342712 -0.022999456
000330 3f 54 16 bd f6 45 3f bc 3a 59 49 3c 6b e9 33 bd
       -0.036701437 -0.011674395 0.01228934 -0.043923777
000340 2b c1 fa bc 03 0f 2c bd d8 e5 0d bd d1 9a 35 bd
       -0.030609688 -0.042006504 -0.034643024 -0.044337098
000350 70 14 b1 bd 61 50 7d bd bf 3f 4e bd 82 a2 ba bd
       -0.08646476 -0.061844233 -0.05035376 -0.09113027
000360 93 b1 8d bd 68 ee b4 bd cf 69 41 bd a7 a7 f5 bd
       -0.06918635 -0.08834535 -0.047220048 -0.11994868
000370 d0 4f 0b bd 48 e9 61 bd 66 1f ab bb 2f 38 80 3c
       -0.034011662 -0.055154115 -0.005222249 0.01565179
000380 b1 9c 1c bb 0c 34 ba 3b 32 b7 55 bc 35 e2 bf ba
       -0.0023897106 0.005682474 -0.013044165 -0.0014639559
000390 78 58 04 bd 7b fb b6 3c c9 34 6e 3b e8 09 36 bd
       -0.032310933 0.022336712 0.003634738 -0.04444304
0003a0 f7 60 bc bb f8 fc 5a 3b c0 d7 93 bc 16 b0 4f bc
       -0.005748864 0.0033414941 -0.018047214 -0.0126762595
0003b0 ab f4 96 bd a5 b2 94 bd 22 4d 0b bd 72 86 84 bd
       -0.073708855 -0.07260636 -0.034009106 -0.06470956
0003c0 37 ab f1 bd 19 a1 7a bd 09 fd d5 bd 28 a5 5d bd
       -0.11800235 -0.06118879 -0.10448653 -0.054112583
0003d0 0d c7 8d bd 92 96 7a bd 82 2a d0 bd e5 40 6b bd
       -0.069227315 -0.06117875 -0.10164358 -0.057434935
0003e0 19 27 64 bd 09 3a 8e bd 48 d7 41 bd 7c c9 b3 3b
       -0.05570135 -0.06944663 -0.04732445 0.0054866653
0003f0 1b 62 f3 bc 73 66 cb 3c 14 c6 b8 bc 6e 0b ba 3b
       -0.029709866 0.024829125 -0.022555389 0.005677632

l1.bias f4 [100]
000000 c2 d5 2c bc ea 1d 66 bc ad 83 86 bb 8a 63 d3 bc
       -0.010549011 -0.014045218 -0.0041050524 -0.0258043
000010 42 19 a4 3c 00 f5 0b bc b5 9c 29 bb ee 54 44 bd
       0.020031575 -0.008542299 -0.0025880758 -0.047932558
000020 f4 78 c0 bc 02 a4 d1 bc 09 fb 43 bc 99 b4 09 3a
       -0.023495175 -0.0255909 -0.011961707 0.00052530464
000030 c3 fb aa 3c 17 0d 36 3c b0 ba 43 3d b7 76 06 3d
       0.020872002 0.011111519 0.04778546 0.03282806
000040 89 67 02 3d 0a 9e 92 3c 01 5a 8b 3c a7 24 cc bc
       0.03183702 0.017897625 0.01701069 -0.024919821
000050 f4 ae 2c bd ef 6d 5a bb ee 50 30 3c be 9b c6 bc
       -0.042159036 -0.0033329686 0.010761483 -0.024244186
000060 ad 69 d9 3b e4 41 c5 3c 1b 67 e5 ba 8d ea 20 3c
       0.006634912 0.02407927 -0.0017502041 0.009821546
000070 81 6a bf bc 0e fc 97 3c 4c ca 82 bc 20 7a b4 3b
       -0.023366215 0.018552806 -0.015965603 0.0055077225
000080 e8 c4 cb bc 19 55 f1 3c 39 c9 c8 3b f5 b6 0b 3d
       -0.024874166 0.029459523 0.0061275032 0.03411003
000090 62 f3 40 3c 1e 05 ec bc 77 fd 58 bc a5 10 a2 bb
       0.011776777 -0.028811034 -0.0132440245 -0.004945832
0000a0 60 8d 88 bc 65 43 9a 3c 05 ee 98 3b e0 ea 33 3d
       -0.016668975 0.018830964 0.004667046 0.043925166
0000b0 7e 28 48 bc e4 53 60 bc b8 0f b8 3b 21 c2 c8 bc
       -0.012216685 -0.013691876 0.005617108 -0.02450663
0000c0 c1 ef 40 3c 7a 9d 68 bc 03 03 35 bb 22 8c aa 3c
       0.011775912 -0.014197702 -0.0027620203 0.020818774
0000d0 78 e1 dc bb a7 95 f6 bb 33 2c da bc 68 be 87 bc
       -0.006740745 -0.007525164 -0.026632404 -0.016570285
0000e0 36 13 bb 3c d3 35 d1 3c b9 38 a0 3b 13 91 c6 bc
       0.022836309 0.02553836 0.0048895744 -0.024239099
0000f0 c2 46 06 3c 78 da 9f bc b1 3e 78 b9 7f ed 0b bc
       0.008195581 -0.019513354 -0.00023674477 -0.00854051
000100 3f 8a 41 3c f3 b6 56 3c 6c 3d db 3b 02 a0 f0 3c
       0.011812746 0.013105142 0.0066906717 0.029373173
000110 1d 7d a3 3c fe 06 4e bc db 12 ae bc 9e 87 7c 3c
       0.01995712 -0.012574909 -0.021249225 0.015413193
000120 de 02 4d bd 98 8e 04 3d 32 7e f3 bc 59 a2 1a 3c
       -0.050051562 0.03236255 -0.02972326 0.009438121
000130 b3 eb 47 bc fb e2 f3 3c c6 d3 02 3d 24 21 57 3c
       -0.012202191 0.029771319 0.031940244 0.01313046
000140 a7 14 de bb 04 05 1a 3d 81 5e 97 3c a3 a3 53 ba
       -0.0067773643 0.03760244 0.01847768 -0.0008073395
000150 46 cc 0e bd 10 ee 36 3c 27 35 28 bb de 09 0c 3d
       -0.03486278 0.011165157 -0.0025666447 0.034189098
000160 f7 8e 02 3b 90 97 00 3d 40 32 c9 bc 74 db f0 3c
       0.001992164 0.03139454 -0.024560094 0.029401518
000170 05 c4 cc 3b c0 c0 73 bc ff ae f1 3c da 37 fe 3c
       0.0062489533 -0.014877498 0.02950239 0.031032491
000180 cd 0e b9 bc 1f 51 62 bc 68 81 8a 3c 39 c6 f9 3c
       -0.022590065 -0.013813286 0.016907409 0.030490028

l2.weight f4 [10, 100]
000000 b5 5a 23 be 31 93 a6 3d 69 0d b2 3d 02 aa b3 bd
       -0.1595257 0.08133543 0.08693964 -0.08772661
000010 36 fe 6a bb 74 f6 41 be b3 0f 21 bd b7 37 ca bd
       -0.0035857088 -0.1894167 -0.039321613 -0.09873908
000020 89 5f c5 3d 1f 68 81 bd ab f8 98 3d 99 d4 0d 3e
       0.096373625 -0.06318688 0.07469305 0.13850631
000030 b6 c6 35 bd 23 29 b9 bd 34 e2 7b 3d 3e 8f 84 bc
       -0.04437896 -0.09041049 0.06149502 -0.016181584
000040 58 83 a3 bb 8a a6 c7 bd b8 f9 12 be 11 65 a1 ba
       -0.0049900226 -0.09748562 -0.14353073 -0.0012313445
000050 80 e7 58 3d 05 7c 23 be 40 7c 7a 3d e5 69 f9 bc
       0.05295515 -0.15965278 0.06115365 -0.030446002
000060 de ac 6c be aa 8c 30 be c4 a4 c2 bd 91 ff cf 3d
       -0.23112819 -0.17241159 -0.09504083 0.10156167
000070 04 c4 a2 bd 03 9b 0d bd 7b 7f 6f bc c2 e2 10 be
       -0.07947543 -0.03457166 -0.014617796 -0.14149001
000080 32 47 f2 3d 84 ae 3b be d2 ce 90 bd 7e 9b 0a bd
       0.11829986 -0.18328291 -0.07070698 -0.033839695
000090 e1 ef 80 bd 9d dd ca 3d 41 b1 b6 3d 7f f1 43 bd
       -0.06295753 0.09905551 0.08920527 -0.04783773
0000a0 db 8a 66 bd 93 25 16 3d cc 75 41 bd 62 a3 a4 bd
       -0.056284767 0.036656927 -0.04723148 -0.08038975
0000b0 d5 76 b8 3d 32 5c 89 bd 3d fc a2 ba 75 db 58 be
       0.090070404 -0.06707038 -0.0012434792 -0.21177466
0000c0 e1 0a a0 3c 42 60 22 be 0c 6e f6 bc 6f 04 39 3d
       0.019536437 -0.15857032 -0.030081771 0.045170244
0000d0 73 9a 1e 3e 35 41 a2 3d c7 fe 00 bd ee a8 87 3d
       0.15488605 0.079225935 -0.031492975 0.06624018
0000e0 6f f3 d3 bd 52 c9 15 3d 72 64 ef bd 6f bd 32 bd
       -0.10349166 0.036568947 -0.1168908 -0.04363769
0000f0 bd dc 41 bd 1e 15 c8 3d f5 5e b4 bd 47 0d 81 bd
       -0.047329653 0.09769653 -0.08807174 -0.063013606
000100 45 12 00 be b4 c7 bb bb ed 12 d6 3d 9a 0f d6 3c
       -0.1250697 -0.0057305936 0.104528286 0.026130486
000110 d0 09 20 be 68 e8 f2 3d 5c 39 97 bd 05 89 bb 3d
       -0.15628743 0.11860734 -0.07383987 0.09156994
000120 80 61 fc 3c 9a 6d 09 3c b0 89 c8 3b b4 f0 44 3d
       0.03080821 0.008387947 0.0061199293 0.048081115
000130 77 8c 51 be 33 e4 6f 3c af cc f4 3d 07 0c 7f bd
       -0.2046374 0.014641809 0.11953103 -0.06226733
000140 8f 5b 9a 3c c6 41 f0 bd 11 10 19 be fd 1c b6 3d
       0.018842487 -0.11731295 -0.14947535 0.08892248
000150 4f 1c 8a bd 10 85 d3 bd ec 0a 06 be d6 95 eb 3d
       -0.06743681 -0.10328114 -0.13090104 0.11503188
000160 80 9d 59 be 94 a5 5c bd 0a f1 92 3d 99 f0 2e be
       -0.21251488 -0.053868845 0.07174881 -0.17083968
000170 f0 23 8d bc be 7d ff 3d 5b 66 8a 3d 04 54 0b 3e
       -0.01722905 0.12475155 0.06757804 0.13606268
000180 02 84 d9 bc 42 f1 42 3e 6c 2c 3e be e3 3b 65 3d
       -0.026552204 0.19037345 -0.18571633 0.055965316
000190 6e a2 f8 3d 76 b5 f6 bd e6 95 9a 3d 14 6d be bd
       0.12140356 -0.1204633 0.07548122 -0.09298149
0001a0 44 2e 5e bd e8 04 47 3e d5 bc a4 3d 56 5e ca 3d
       -0.05424334 0.19435465 0.08043829 0.098812744
0001b0 59 08 2c be 84 87 13 be 69 24 18 be 20 c7 be 3c
       -0.1680006 -0.14407164 -0.1485764 0.02328831
0001c0 68 fd a0 3c d0 2f 05 bd 35 d6 2b bd 61 73 70 bd
       0.019652084 -0.0325163 -0.04195233 -0.058703784
0001d0 73 f9 e7 bd ab ac 80 3c 6e 08 7a bd 1f 7c 4f 3d
       -0.113268755 0.015707335 -0.061043195 0.05065548
0001e0 c7 1b 9e 3d d9 1c db bd f3 4a a1 bc 08 b7 74 3e
       0.07720142 -0.10698862 -0.019689059 0.23897946
0001f0 35 eb 39 3e 9e 99 c1 bc 80 22 e1 3d 2b e0 53 bd
       0.1815613 -0.02363282 0.109929085 -0.051727455
000200 5c 53 66 3d 49 61 46 3d 7c 6c cb 3c b4 31 d1 3d
       0.05623184 0.048432622 0.024832003 0.10214558
000210 19 2e 1a be 1e ba f2 bc d3 9f 61 3d ba eb d5 bb
       -0.15056647 -0.029629763 0.05508406 -0.006528345
000220 ac 31 97 3d c2 83 d4 3d e7 9c b2 3d 0a 1c 66 be
       0.07382521 0.10376693 0.08721333 -0.22471634
000230 66 b0 27 be c5 f3 a5 bd 8b 6d b7 bb 99 07 8f 3c
       -0.16375884 -0.08103136 -0.0055977753 0.017459678
000240 de f8 c4 bd 24 52 1a be 49 31 d6 3d d4 a0 0e 3d
       -0.0961778 -0.15070397 0.10458619 0.034821346
000250 d7 fd 9b bd fe 39 1c be fd 25 93 3d 02 63 98 bc
       -0.076167755 -0.15256497 0.0718498 -0.018601898
000260 4f 2c f8 3d 45 af dd 3d 21 d4 70 bc 76 15 2b 3d
       0.12117826 0.10824446 -0.014699013 0.041768514
000270 60 1f 3f ba fb af 2f be 30 90 fc bd 97 89 d3 3d
       -0.0007290747 -0.17156975 -0.12332189 0.103289776
000280 27 3c 44 3d c3 cb 57 bd 55 bf 05 3e f0 90 d6 bd
       0.04790893 -0.052684557 0.13061269 -0.104768634
000290 3f 10 92 bc d8 6f 2e be 05 7a 08 be cf 8e f6 bc
       -0.017830012 -0.17034853 -0.13327797 -0.030097393
0002a0 c1 39 bc bd 99 7e 29 be bc 19 3e 3b 0c 50 17 3e
       -0.09190703 -0.165522 0.0029007038 0.14776629
0002b0 6b 9b e3 bc f4 0d 78 be 87 f0 99 3d 0a b1 4b be
       -0.02778407 -0.24224073 0.0751658 -0.19891754
0002c0 4a a3 f6 bd 16 2f e1 bd c6 9e ef 3d 66 5b 9e bc
       -0.12042864 -0.10995309 0.117002055 -0.019330692
0002d0 bf ee 34 3e a0 67 1b 3d e0 48 c0 3d eb ae 8a bc
       0.176692 0.03794062 0.093889 -0.01692911
0002e0 35 1b e1 bd 94 ab 9d 3d e9 b8 ae 3d ee cd 9e bd
       -0.109915175 0.076987416 0.085313626 -0.07754122
0002f0 9e f7 5a 3c 28 9c be 3d d5 05 36 3e 23 93 37 3e
       0.013364701 0.09307128 0.17775662 0.17927222
000300 75 30 18 3c 6b a1 b5 bd 79 d6 04 be 43 f1 67 bd
       0.009288897 -0.08868679 -0.1297244 -0.05662657
000310 be bc d6 bd e4 6c dd 3c 4b e8 f1 bd 2a c5 40 3d
       -0.104852185 0.027029462 -0.118118845 0.04706303
000320 e3 94 2a 3e 14 e3 9a 3c a4 71 a3 bc 02 8c ea bd
       0.16658358 0.018907107 -0.019951649 -0.114524856
000330 04 5a 92 bc 89 ab a8 3c 90 d7 20 bd c0 7e 9c bd
       -0.017865188 0.020589607 -0.039268076 -0.07641363
000340 a3 cf b3 be 1d 6a dd 3d 8f 4a 40 3d 81 c0 dc 3d
       -0.35119352 0.10811255 0.046946105 0.10778905
000350 2d de a4 3d 93 62 44 bd 03 af 8b bb 1c 14 b8 3c
       0.08050189 -0.04794557 -0.0042628064 0.022470526
000360 14 6f 28 3d ac 2b 2b bd af 6b 61 bd 32 c8 5d bc
       0.041121557 -0.041789696 -0.055034336 -0.0135365
000370 93 77 82 3e 97 c6 db 3c 30 81 b3 bd c6 f4 80 be
       0.25481853 0.026828093 -0.08764875 -0.25186747
000380 d7 b2 c6 3d 91 36 aa 3d bf 60 91 bd f7 de 20 bd
       0.0970208 0.08311189 -0.07098531 -0.039275136
000390 1a 19 03 3e 8f 4c 0f be 90 bb a7 3d 7c 71 c5 bd
       0.12802544 -0.13994049 0.081900716 -0.09640786
0003a0 a0 7e 2c 3d a4 75 77 3d 9d 42 03 3d 86 75 ed 3d
       0.042112947 0.060414925 0.03204595 0.115946814
0003b0 e7 1b 88 bc 0c e0 c0 bd 8e 70 9f bd 43 57 c9 bd
       -0.016614867 -0.094177336 -0.0778514 -0.09831097
0003c0 28 ee 1b 3d ee 7e 14 be c6 96 b0 bc c0 79 a4 bd
       0.03806892 -0.14501545 -0.02155627 -0.080310345
0003d0 13 65 a7 3d 72 e4 a2 3c 73 bc 87 3d 1f 4c c7 bd
       0.08173575 0.019884322 0.06627741 -0.09731316
0003e0 7b c0 d8 3d 34 89 92 bd cf 93 2a 3e 9f a8 e1 bc
       0.10583588 -0.07155076 0.16657947 -0.027546225
0003f0 c6 c3 f4 3d a5 7b 4a 3d 91 51 02 be f0 49 ca bc
       0.11951403 0.049434323 -0.12726428 -0.02469346

l2.bias f4 [10]
000000 1b 2c 91 bd ff f4 5d 3d ed 68 14 3d d7 08 ad 3b
       -0.070884906 0.054188725 0.036232878 0.005280595
000010 e3 96 71 3d 41 97 bd 3c e2 fb fc 3c 1a 78 a6 bd
       0.058981787 0.023143413 0.030881826 -0.08128376
000020 2c 37 94 3a 05 e5 d6 bc
       0.0011307946 -0.026232252
